best_model_modelnet.pth (torch, 30672 bytes, 8 tensors)

conv1.bias f4 [64]
0.16997539 0.05971309 0.128438 0.0433138 0.19018991 -0.045503788 0.036846552 -0.04217046
-0.074712686 0.15648407 0.1053018 0.070710234 -0.14032635 0.054245923 0.034446362 0.14202821
0.29920298 -0.10481822 -0.04958877 0.093277186 0.053093445 0.31756133 0.08053157 -0.0033981581
0.15705062 0.08768661 0.20180836 -0.20735343 0.029808676 -0.04937116 0.13039389 0.0029731013
0.04309157 0.051693466 0.067006394 -0.11937152 0.10709479 0.04943786 -0.033904135 0.0827865
-0.02386487 0.07747457 -0.044273153 -0.14296407 0.1413016 0.21444084 0.060534827 0.09993276
0.20346889 0.013569513 0.08267155 -0.063115194 -0.027762493 -0.1496992 0.034783255 0.4786768
0.053615574 -0.08790775 0.41225103 0.08218183 0.091262996 0.018076783 0.035674 -0.07544703
00000000: 070e 2e3e b795 743d 4085 033e d069 313d
00000010: 25c1 423e 2e62 3abd 69ec 163d efba 2cbd
00000020: f702 99bd 5c3d 203e 78a8 d73d 87d0 903d
00000030: b6b1 0fbe f930 5e3d a117 0d3d d86f 113e
00000040: 2231 993e efaa d6bd 981d 4bbd 1c08 bf3d
00000050: 8378 593d 6697 a23e bced a43d a2b3 5ebb
00000060: e1d1 203e 0a95 b33d daa6 4e3e 7554 54be
00000070: 5331 f43c 6a39 4abd fa85 053e 5dd8 423b
00000080: c980 303d 87bc 533d a63a 893d 0e79 f4bd
00000090: 8354 db3d 5a7f 4a3d 10df 0abd f88b a93d
000000a0: 4380 c3bc fdaa 9e3d c457 35bd 2c65 12be
000000b0: 5eb1 103e 6196 5b3e 5ef3 773d 8ca9 cc3d
000000c0: 265a 503e aa52 5e3c b44f a93d 8a42 81bd
000000d0: 2b6e e3bc bf4a 19be e378 0e3d 2015 f53e
000000e0: 019c 5b3d fa08 b4bd 9112 d33e f34e a83d
000000f0: 18e8 ba3d c315 943c e61e 123d f983 9abd

conv1.lin.weight f4 [64, 3]
0.8457881 0.35609782 -0.00023006051 -0.5743325 0.0015748364 0.12624867 0.4542396 0.097112305
-0.7299815 -0.3254069 0.64585036 0.33403146 0.14801723 -0.22989428 -0.54245645 -0.87911797
-0.017943332 0.041712377 0.5256275 0.45581275 -0.022459159 -0.2773286 -0.29492587 1.0540183
-0.22483334 -0.2721083 0.9607256 0.12594955 -0.42737374 0.48584497 0.37216824 -0.100586526
-0.72136253 0.88360286 0.023402466 -0.030691458 -0.47854847 -0.6337062 -0.38626677 0.6417162
-0.05830016 0.06901671 0.7375036 0.0147539815 -0.03794858 -0.23416267 -0.40876842 -0.6552194
0.39796767 -0.28765842 0.24870884 -0.55050814 -0.22275208 -0.14711629 -0.8803111 -0.014029788
0.027318232 0.23714925 -0.33852246 -0.6461582 0.28207058 -0.3223157 0.36529022 -0.17239583
0.38642868 -0.76093966 0.5008307 -0.07630831 0.2535268 -0.45065382 0.429095 -0.2813684
0.76624775 0.3701477 0.0262641 0.3627933 0.07774568 -0.68779117 0.60643965 -0.51269686
0.58533436 0.2897179 0.54024947 -0.25490612 -0.7429091 -0.030815305 0.5369599 -0.8670464
-0.020230401 0.04389167 0.14006272 -0.26955926 -0.49866986 -0.086492136 -0.5874534 0.51983345
0.7343281 0.013399206 -0.031004477 -0.001481536 -0.48144177 -0.60333407 0.15680358 -0.3587052
-0.6118526 -0.006774682 -0.39019647 0.3538425 0.13489622 -0.18151005 -0.48892584 0.0184673
-0.54012525 0.5659651 -0.5598544 -0.012521037 0.020082744 0.4582887 0.58239967 0.19372043
-0.6912999 -0.05473479 0.80733186 0.47614112 0.49359253 0.15517952 -0.7948053 -0.014553817
0.032182507 -0.1967688 0.7248851 0.4646071 -0.14737843 -0.2772185 -0.56430656 -0.891339
-0.40531483 0.3325946 0.4722896 -0.12831521 -0.6505664 -0.6978299 0.3601287 -0.071773276
-0.010579936 0.49648577 -0.5073532 0.026038993 -0.32117808 -0.46449044 -0.6377277 -0.46450296
0.26943332 -0.37264127 0.5473791 -0.32998028 -0.73810565 -0.031714004 0.055189677 0.48183388
0.47927776 -0.2343105 -0.8237785 -0.035507612 0.18630631 0.026459895 -0.2588424 0.86596423
-0.0005993878 -0.42634538 -0.5926591 -0.32325074 0.32397616 -0.25863308 0.022561159 -0.27425796
-0.3718992 0.3315173 0.5717427 0.1860417 -0.15111148 -0.32614297 -0.48602727 -0.63728005
-0.034993082 0.5165819 0.39315885 -0.5647389 0.48272252 -0.49936092 0.43824756 0.5275857
00000000: 9285 583f 7452 b63e 663c 71b9 7407 13bf
00000010: be6a ce3a 5547 013e 1892 e83e d1e2 c63d
00000020: 11e0 3abf bc9b a6be 7356 253f 2c06 ab3e
00000030: d491 173e 6869 6bbe 6dde 0abf e00d 61bf
00000040: e5fd 92bc 99da 2a3d 868f 063f 4a60 e93e
00000050: 45fc b7bc 04fe 8dbe 8600 97be 12ea 863f
00000060: b63a 66be c751 8bbe 1df2 753f ebf8 003e
00000070: bbd0 dabe acc0 f83e d68c be3e 4f00 cebd
00000080: 37ab 38bf cc33 623f 87b6 bf3c a76c fbbc
00000090: 4e04 f5be 923a 22bf c2c4 c5be 8347 243f
000000a0: 26cc 6ebd a258 8d3d 09cd 3c3f afba 713c
000000b0: f86f 1bbd 57c8 6fbe 184a d1be 75bc 27bf
000000c0: 6bc2 cb3e f747 93be 88ad 7e3e 1aee 0cbf
000000d0: 1f19 64be a7a5 16be 115c 61bf 32dd 65bc
000000e0: 7cca df3c 41d7 723e d152 adbe a06a 25bf
000000f0: 8e6b 903e 9006 a5be 5207 bb3e 8888 30be
00000100: fbd9 c53e f1cc 42bf 7136 003f 8847 9cbd
00000110: 44ce 813e 19bc e6be 57b2 db3e 850f 90be
00000120: d028 443f 0084 bd3e cf27 d73c 0bc0 b93e
00000130: 2139 9f3d 1513 30bf a13f 1b3f 1a40 03bf
00000140: 79d8 153f e855 943e ca4d 0a3f 0e83 82be
00000150: 4a2f 3ebf 6170 fcbc 3476 093f c1f6 5dbf
00000160: 3aba a5bc c0c7 333d 9a6c 0f3e ac03 8abe
00000170: a851 ffbe ca22 b1bd 5963 16bf ce13 053f
00000180: edfc 3b3f 5888 5b3c 1afd fdbc 1930 c2ba
00000190: 897f f6be 1a74 1abf 1e91 203e 35a8 b7be
000001a0: 5fa2 1cbf 27fe ddbb d5c7 c7be d82a b53e
000001b0: 3c22 0a3e c5dd 39be 7d54 fabe bc48 973c
000001c0: a645 0abf 17e3 103f 9e52 0fbf 0925 4dbc
000001d0: 9184 a43c d1a4 ea3e 2518 153f a65e 463e
000001e0: 08f9 30bf 9631 60bd 4dad 4e3f c5c8 f33e
000001f0: 29b8 fc3e 61e7 1e3e 5c78 4bbf 2273 6ebc
00000200: ced1 033d c37d 49be 1292 393f fbe0 ed3e
00000210: 5fea 16be 95ef 8dbe 6576 10bf cb2e 64bf
00000220: 6d85 cfbe d749 aa3e f1cf f13e 1065 03be
00000230: 858b 26bf fba4 32bf ca62 b83e defd 92bd
00000240: 7857 2dbc 6233 fe3e e6e1 01bf ba4f d53c
00000250: 7471 a4be b1d1 edbe 1f42 23bf 55d3 edbe
00000260: 2af3 893e d6ca bebe 0921 0c3f 2df3 a8be
00000270: 7ef4 3cbf 8be6 01bd 920e 623d eeb2 f63e
00000280: e563 f53e 17ef 6fbe 26e3 52bf 6e70 11bd
00000290: 15c7 3e3e 6cc2 d83c fe86 84be d5af 5d3f
000002a0: 3c20 1dba f149 dabe 82b8 17bf 1f81 a5be
000002b0: 34e0 a53e 8e6b 84be 2ed2 b83c 8a6b 8cbe
000002c0: 9269 bebe a3bc a93e bb5d 123f b781 3e3e
000002d0: f8bc 1abe 36fc a6be 91d8 f8be c924 23bf
000002e0: e854 0fbd b63e 043f 1e4c c93e bb92 10bf
000002f0: 6827 f73e 3cac ffbe fc61 e03e db0f 073f

conv2.bias f4 [64]
0.17618851 0.04394536 -0.064088784 0.11811551 0.1607005 -0.017390843 -0.02449098 -0.07826368
0.024372634 0.026874976 0.0693903 0.060423728 -0.023324592 0.21030045 -0.032922436 0.18855748
0.051147066 0.058376353 0.16624598 -0.064292386 -0.011427061 -0.14889985 0.11365186 0.12034763
0.089264505 0.15643477 0.0060212235 0.09542809 0.17095594 -0.110149905 0.19034119 0.068777606
0.0025683169 0.23775528 0.11713558 0.1491268 0.01288619 0.32193866 0.06901655 0.03125003
0.009923916 0.10876961 0.06914249 0.108848944 0.21312678 0.09413591 -0.025189605 0.061023004
-0.02612009 -0.17599583 0.05848036 -0.08648953 0.11151388 0.028943837 0.19068667 0.15213785
0.0113507155 0.064645946 -0.100935735 0.04520359 0.056158602 0.020460352 0.124110065 0.019636156
00000000: c36a 343e 0d00 343d fb40 83bd 8be6 f13d
00000010: ac8e 243e 3e77 8ebc 4fa1 c8bc b548 a0bd
00000020: 1ea9 c73c e928 dc3c 801c 8e3d df7e 773d
00000030: 3713 bfbc 0059 573e add9 06bd 3615 413e
00000040: 967f 513d 0b1c 6f3d 633c 2a3e baab 83bd
00000050: 9138 3bbc 3479 18be 4ec2 e83d d178 f63d
00000060: 4fd0 b63d 7030 203e af4d c53b cd6f c33d
00000070: 130f 2f3e 4696 e1bd cde8 423e 46db 8c3d
00000080: 3551 283b 1f76 733e c7e4 ef3d b2b4 183e
00000090: 9920 533c 25d5 a43e 8d58 8d3d 0800 003d
000000a0: ec97 223c 9ac2 de3d 949a 8d3d 32ec de3d
000000b0: e83d 5a3e 54ca c03d 6e5a cebc 42f3 793d
000000c0: cdf9 d5bc 4038 34be 1a89 6f3d 6c21 b1bd
000000d0: 6461 e43d a01b ed3c 5e43 433e 06ca 1b3e
000000e0: 5af8 393c 1865 843d 65b7 cebd 6627 393d
000000f0: 9006 663d 789c a73c 6b2d fe3d 01dc a03c

conv2.lin.weight f4 [64, 64]
0.289352 -0.02167326 0.18327342 0.34008327 -0.24030766 0.31922346 0.4107081 -0.6355002
-0.7786497 0.02249038 -0.36557207 0.33400688 0.088521466 0.23686798 0.4277819 -0.16188207
0.2127827 0.013666253 0.23741533 -0.122601956 -0.09274142 0.2905214 0.31649473 0.20605104
0.22884507 -0.37138852 0.04340491 0.32891142 -0.17504148 0.3925085 -0.26815993 -0.56848466
0.2591756 -0.15663221 -0.30751586 -0.3615751 -0.35528043 -0.5204829 0.15946156 0.39754555
-0.32727522 0.15047242 0.17218323 0.013943209 -0.10001024 0.1295144 -0.1383229 0.32656515
0.26616275 -0.26323634 0.31274968 0.41801396 0.18632728 0.46989593 0.2622796 -0.037788168
-0.14088756 0.13371405 -0.07522204 0.31680998 0.0031748172 0.08907228 -0.29521585 0.036018178
0.094987445 0.17284875 0.3112295 0.013588556 0.06500063 0.1915823 0.002302348 0.039895877
0.23523661 0.09347034 0.33179575 0.18172894 -0.08705035 -0.049390305 0.01928446 0.038774714
-0.13897502 0.12653984 0.126058 0.15083444 0.044196542 -0.0068720896 0.13085821 -0.16469231
0.07935801 0.15154773 0.037592605 -0.28548306 0.34242028 0.11311649 0.2939873 -0.24962813
0.12826289 0.12716164 0.13094802 -0.26741454 0.13070184 -0.050146874 0.21753567 -0.04418623
0.50827324 -0.10305515 0.010920141 0.19848971 0.081603356 0.03870186 0.4463476 0.090132415
-0.33758724 0.15992454 -0.11984913 -0.3260768 0.21604796 0.024286365 0.31576055 0.030540496
0.16729116 -0.20146762 0.05695135 0.18519637 0.06035631 0.3336852 -0.24381624 0.21915306
0.22158186 -0.023990482 -0.005341923 -0.031529784 -0.42748514 0.34640834 0.37550384 -0.38192725
-0.5894728 -0.26209265 -0.3923792 0.03922149 0.48565957 -0.06607385 0.20078246 0.02694284
-0.32900217 0.39765182 0.34083387 -0.3027981 -0.19165105 0.0875311 0.07781901 0.39721945
0.12441132 -0.35551682 -0.44212478 0.4992612 0.16433382 0.36238194 -0.45761386 -0.04337365
-0.002286796 0.019082753 -0.23773003 -0.03383048 -0.33341438 -0.12852527 0.12328163 0.33405298
0.0037340198 0.333402 0.26006344 0.020929804 -0.12738964 0.1833985 -0.24524924 0.32701957
0.3336236 -0.21324144 0.26952875 0.35032856 0.3371424 0.3362621 0.0035623938 -0.47449842
-0.06716801 0.16553523 -0.25057453 0.22802362 -0.01865821 -0.088514164 -0.14009866 0.17747125
0.07148337 0.032346766 0.045502707 0.15248588 0.34568578 -0.012259534 -0.21100943 0.102551684
-0.017413348 -0.02533939 0.019157799 -0.025378313 0.04568034 -0.11236115 0.078279 0.3523135
-0.09888119 0.030240556 -0.21260908 0.14977558 0.0108788805 -0.004748811 0.06415688 -0.17375933
0.14813994 0.0029093258 -0.012549338 -0.33389333 0.13090476 -0.049100082 0.30810106 -0.017100813
0.09532208 0.21038875 0.25672856 0.047478035 0.11928301 -0.1306271 0.040843245 0.092901245
-0.11732959 0.05451926 -0.23836721 0.15378736 0.23071541 0.04120923 0.063868314 0.1093569
0.081181064 0.3452763 -0.25804323 -0.26400587 -0.073232464 -0.21597877 -0.07707234 0.121656075
0.30204332 -0.26775092 0.016845994 0.22480145 0.17088667 0.13284698 -0.23876764 0.111711934
00000000: f225 943e 1f8c b1bc 07ac 3b3e 651f ae3e
00000010: 3613 76be 4271 a33e 5548 d23e 24b0 22bf
00000020: 9655 47bf bf3d b83c 432c bbbe f302 ab3e
00000030: be4a b53d 858d 723e 3b06 db3e 6ac4 25be
00000040: b5e3 593e 6be8 5f3c 011d 733e bc16 fbbd
00000050: 37ef bdbd 39bf 943e 990b a23e 0bff 523e
00000060: 5d56 6a3e a326 bebe 59c9 313d 1467 a83e
00000070: 133e 33be e0f6 c83e 424c 89be 3688 11bf
00000080: aab2 843e 3264 20be b872 9dbe 5f20 b9be
00000090: 51e7 b5be 5e3e 05bf e449 233e 178b cb3e
000000a0: 9e90 a7be 7115 1a3e cd50 303e 0f72 643c
000000b0: 2bd2 ccbd 6c9f 043e 85a4 0dbe 8c33 a73e
000000c0: 7c46 883e eac6 86be ba20 a03e ed05 d63e
000000d0: 94cc 3e3e 3396 f03e 8349 863e c4c7 1abd
000000e0: d444 10be 56ec 083e 030e 9abd eb34 a23e
000000f0: 9810 503b 876b b63d 8826 97be cc87 133d
00000100: c788 c23d 43ff 303e 7959 9f3e 89a2 5e3c
00000110: 0d1f 853d 272e 443e fde2 163b dc69 233d
00000120: dee1 703e 616d bf3d 22e1 a93e 2717 3a3e
00000130: 7447 b2bd 7d4d 4abd 72fa 9d3c 3cd2 1e3d
00000140: 784f 0ebe a993 013e 5915 013e 5874 1a3e
00000150: 6f07 353d 442f e1bb b2ff 053e 1aa5 28be
00000160: 7486 a23d 542f 1b3e b4fa 193d d62a 92be
00000170: b651 af3e 9ea9 e73d 8185 963e 849e 7fbe
00000180: 5957 033e a936 023e 3d17 063e 8fea 88be
00000190: b4d6 053e cf66 4dbd acc1 5e3e 9ffc 34bd
000001a0: 321e 023f 940e d3bd 64ea 323c e340 4b3e
000001b0: a91f a73d d785 1e3d ac87 e43e 5897 b83d
000001c0: 3cd8 acbe 42c3 233e 7673 f5bd 8af3 a6be
000001d0: ad3b 5d3e 33f4 c63c 5eab a13e 1030 fa3c
000001e0: 604e 2b3e 874d 4ebe d245 693d 1ea4 3d3e
000001f0: 2e38 773d c9d8 aa3e f7aa 79be a969 603e
00000200: 5be6 623e b087 c4bc 4c0b afbb 6025 01bd
00000210: 55df dabe 6f5c b13e 0a42 c03e f88b c3be
00000220: b0e7 16bf 0231 86be ede5 c8be b7a6 203d
00000230: 5fa8 f83e ba51 87bd eb99 4d3e 3bb7 dc3c
00000240: f972 a8be 0599 cb3e c781 ae3e 5a08 9bbe
00000250: 2c40 44be 8143 b33d 935f 9f3d 5960 cb3e
00000260: 5dcb fe3d 4d06 b6be 2e5e e2be 2a9f ff3e
00000270: 2047 283e 208a b93e 5d4c eabe 92a8 31bd
00000280: 12de 15bb 6f53 9c3c 806f 73be d491 0abd
00000290: 4ab5 aabe 219c 03be 147b fc3d fe08 ab3e
000002a0: 75b6 743b abb3 aa3e 0927 853e fb74 ab3c
000002b0: 6e72 02be d1cc 3b3e 9e22 7bbe 1c6f a73e
000002c0: b6d0 aa3e f75b 5abe acff 893e 445e b33e
000002d0: ee9d ac3e 8c2a ac3e 0d77 693b 75f1 f2be
000002e0: 628f 89bd 1182 293e 4e4b 80be 067f 693e
000002f0: 1ad9 98bc ea46 b5bd 0676 0fbe 06bb 353e
00000300: e065 923d 0b7e 043d 0c61 3a3d 4225 1c3e
00000310: bafd b03e 36dc 48bc db12 58be 9e06 d23d
00000320: 70a6 8ebc 8d94 cfbc d1f0 9c3c 2ee6 cfbc
00000330: 4f1b 3b3d 9a1d e6bd be50 a03d 6f62 b43e
00000340: 3982 cabd 0bbb f73c 32b6 59be c55e 193e
00000350: 553d 323c ea9b 9bbb af64 833d f7ed 31be
00000360: ffb1 173e 63aa 3e3b bd9b 4dbc 11f4 aabe
00000370: e60b 063e 2b1d 49bd 6cbf 9d3e 0117 8cbc
00000380: 3938 c33d 2670 573e ed71 833e 5478 423d
00000390: a74a f43d 1cc3 05be 3f4b 273d 0243 be3d
000003a0: 7f4a f0bd 964f 5f3d 8916 74be 6f7a 1d3e
000003b0: a940 6c3e 02cb 283d 64cd 823d 83f6 df3d
000003c0: 4242 a63d 0ec8 b03e 3e1e 84be c72b 87be
000003d0: e7fa 95bd 8a29 5dbe 1ad8 9dbd d226 f93d
000003e0: 6ca5 9a3e a616 89be 9c00 8a3c 5a32 663e
000003f0: eafc 2e3e 0a09 083e 817f 74be 3ac9 e43d

lin1.weight f4 [32, 64]
-5.369644e-39 2.216629e-39 3.86286e-39 1.85189e-39 6.112513e-39 3.386224e-39 2.846166e-39 4.19612e-40
5.2115877e-37 4.795043e-39 -2.651789e-39 -1.191967e-39 4.670622e-39 -2.726408e-39 3.051259e-39 -6.40737e-39
-3.741463e-39 1.453424e-39 -4.06228e-39 -6.212619e-39 1.885107e-39 5.096486e-39 -1.92391e-39 -6.790988e-39
2.90492e-39 1.5978e-40 -6.0649e-39 4.104899e-39 -6.571545e-39 -4.903526e-39 5.13083e-39 -3.427636e-39
1.2866603e-38 -8.81851e-40 -2.502523e-39 4.460255e-39 7.0664e-40 1.15748e-39 -3.2025e-39 1.944468e-39
3.470038e-39 -9.84027e-40 -1.3801107e-38 -5.427476e-39 3.28715e-39 -4.237538e-39 2.47639e-39 -3.26182e-39
3.98811e-39 5.427302e-39 6.836211e-39 -6.326742e-39 -1.0633169e-38 4.999075e-39 2.784045e-39 8.64869e-40
3.0802e-41 -1.684837e-39 2.15789e-39 -7.31381e-40 -1.336215e-39 1.581475e-39 -2.305423e-39 -6.010745e-39
-0.000260765 -0.0006039715 -0.0002026408 -0.0012761565 -0.00066481944 -0.00051706115 -0.00024735773 -8.077831e-06
-0.000867058 -0.00029945304 -0.0012844454 -0.00026445076 -0.00026549102 -0.0008237011 -0.0003646553 -0.00045240144
-0.0021385693 -0.0022070787 -0.0010176549 -0.00012447526 -0.00011845647 -4.651644e-05 -0.0003210581 -0.00064372754
-0.00012596803 -0.00019753775 -0.000152977 -6.707704e-07 -0.0005926232 2.9911527e-07 -0.0015845621 -0.0013494574
-0.00050969253 -0.0015141125 -0.0015877003 -0.0013046351 -0.0001567122 -0.0016983501 -0.0017876087 -0.00025491114
-1.1688283e-07 -0.00081969996 1.7487478e-06 -0.0014625649 -0.000114561495 -0.0005261777 -0.0001768084 -0.00066724635
-4.496333e-06 -5.632354e-05 -0.00011740803 3.342404e-07 -3.3676013e-05 -0.0001496684 -0.0012606231 -0.00020355236
-0.00012368114 -0.0010507918 -5.4151198e-05 -0.00059187366 -0.001491555 -0.0010900056 -0.0012326231 -4.8496302e-05
-8.8969557e-07 -4.1799132e-07 -1.4559547e-06 0.0005040271 -6.727413e-07 -0.0003206728 0.00041911408 -5.3246024e-10
-0.00021990808 5.2494875e-09 -0.00028971938 -7.1403333e-06 -0.00015076541 -1.0514033e-28 -1.6167473e-07 -2.6247758e-33
-0.0007429465 -9.397541e-08 -1.6590615e-08 1.0974226e-07 -2.4691797e-05 -9.230606e-28 1.0390552e-05 -3.2626104e-17
-2.6142776e-34 1.149837e-33 -5.6957612e-11 5.022291e-25 -3.5993253e-07 -1.3291904e-33 -8.199293e-09 -7.9339825e-06
0.0012287594 -5.0615695e-06 -5.462612e-15 -1.7614861e-06 0.00017917038 -2.986327e-10 0.0003539856 -0.00040329536
4.1360184e-25 -3.550271e-19 -1.4914353e-31 0.000122818 3.8623916e-06 1.1968152e-07 3.4885834e-06 -1.7458374e-08
-5.50861e-29 1.3768908e-33 -6.994141e-19 3.7235223e-34 -2.7721233e-36 -4.3077333e-19 -5.4713167e-16 -7.6390485e-21
1.4175923e-06 -3.868761e-05 -8.885682e-19 -6.93214e-19 0.0004701166 -0.0005151848 0.00033600157 2.257474e-33
-5.0142585e-06 -2.2823233e-08 -1.1889801e-09 -2.8561748e-14 -2.1335259e-08 -1.4500992e-11 -3.8234788e-07 -2.7167129e-09
-2.9588925e-06 -7.257986e-07 -2.6356475e-10 -5.772635e-07 -7.256146e-07 5.577578e-24 -3.315538e-07 7.4942275e-24
-5.6957608e-09 8.418148e-20 -4.3692856e-24 -6.169204e-10 -4.1823316e-07 -1.6620178e-18 -2.1313294e-08 -9.485633e-10
-1.4390097e-24 -8.7993703e-07 -3.544837e-07 1.1554509e-23 -1.4109264e-06 -3.507457e-16 2.2308191e-17 -3.051709e-08
-1.7548201e-07 -1.2689625e-23 -4.473076e-16 -4.0368328e-10 -1.7442814e-07 -2.4091371e-11 -9.818334e-09 -4.654649e-07
1.3950404e-21 -3.877766e-25 -1.6934672e-06 -8.649709e-09 -1.2102087e-09 -1.0841395e-06 -3.3100548e-08 -6.7408325e-07
-1.2969638e-12 1.8701637e-17 3.988865e-24 -1.497184e-19 2.736198e-24 -1.1873317e-24 1.2005889e-22 -2.4249601e-07
-2.663599e-07 -1.1040887e-14 -1.692938e-18 -1.7536086e-08 -6.4584086e-08 -7.096366e-08 -6.5608567e-15 -1.3365914e-09
00000000: 6278 3a80 0f23 1800 1510 2a00 512a 1400
00000010: 338f 4200 6adf 2400 f4fd 1e00 b591 0400
00000020: 5557 3103 a136 3400 1ce0 1c80 b8fa 0c80
00000030: cbdb 3200 1eb0 1d80 ab39 2100 24c5 4580
00000040: adbd 2880 8ed3 0f00 fc3b 2c80 41a6 4380
00000050: e986 1400 ee7e 3700 14f3 1480 83f2 4980
00000060: bca1 1f00 67bd 0100 790a 4280 cab2 2c00
00000070: cb8e 4780 0965 3580 abde 3700 db52 2580
00000080: db1a 8c00 3e9a 0980 0440 1b80 6091 3000
00000090: d3b1 0700 959a 0c00 44df 2280 632c 1500
000000a0: 0ec9 2500 11b7 0a80 df47 9680 9819 3b80
000000b0: 3dcb 2300 8824 2e80 2bf7 1a00 a184 2380
000000c0: 3a6d 2b00 1c19 3b00 9370 4a00 62e4 4480
000000d0: f3c8 7380 636f 3600 c950 1e00 e76a 0900
000000e0: dd55 0000 a458 1280 527f 1700 cbf6 0780
000000f0: d38c 0e80 8238 1100 951a 1980 8373 4180
00000100: 49b7 88b9 d753 1eba fa7b 54b9 b544 a7ba
00000110: 4747 2eba 638b 07ba cbaf 81b9 0586 07b7
00000120: 474b 63ba e8ff 9cb9 d65a a8ba fba5 8ab9
00000130: 9a31 8bb9 a5ed 57ba 352f bfb9 4b30 edb9
00000140: 3d27 0cbb a3a4 10bb d562 85ba 9385 02b9
00000150: d56b f8b8 a61a 43b8 b053 a8b9 d3bf 28ba
00000160: 4916 04b9 2322 4fb9 7368 20b9 fe0e 34b5
00000170: 455a 1bba 1796 a034 15b1 cfba 47e0 b0ba
00000180: e39c 05ba 2f75 c6ba 621a d0ba 4a00 abba
00000190: 1c53 24b9 2c9b deba 324e eaba 98a5 85b9
000001a0: 0401 fbb3 22e1 56ba 84b6 ea35 89b3 bfba
000001b0: bc40 f0b8 30ef 09ba a565 39b9 25ea 2eba
000001c0: 35df 96b6 f13c 6cb8 f538 f6b8 a771 b334
000001d0: 583f 0db8 4ef0 1cb9 7e3b a5ba ac70 55b9
000001e0: 67b0 01b9 b9ba 89ba 6820 63b8 f827 1bba
000001f0: 4880 c3ba 85de 8eba f88f a1ba 8268 4bb8
00000200: 6ad3 6eb5 4a68 e0b4 396a c3b5 b020 043a
00000210: 6e96 34b5 fa1f a8b9 8abc db39 8f5c 12b0
00000220: 2097 66b9 fb5e b431 7ae5 97b9 ff96 efb6
00000230: c816 1eb9 fd47 0591 d098 2db4 cf0e 5a89
00000240: 4cc2 42ba 87cf c9b3 2683 8eb2 72ab eb33
00000250: 3b21 cfb7 c943 9292 1553 2e37 1b76 16a4
00000260: a1bf ad87 a80c bf08 9280 7aae b06e 1b17
00000270: c03c c1b4 82d9 dc88 dfdc 0cb2 321c 05b7
00000280: 530e a13a 8dd6 a9b6 b4cf c4a7 346c ecb5
00000290: afdf 3b39 d12c a4af 2597 b939 6371 d3b9
000002a0: ea00 0017 2e92 d1a0 7099 418c b5c8 0039
000002b0: b199 8136 ce81 0034 681d 6a36 5ff7 95b2
000002c0: eca8 8b90 75c6 e408 3c6e 4ea1 7378 f707
000002d0: 80d3 6b84 a048 fea0 31b3 1da6 2c4c 109e
000002e0: 1a44 be35 8144 22b8 2821 83a1 c599 4ca1
000002f0: fb79 f639 770d 07ba 5e29 b039 2a8b 3b09
00000300: 2740 a8b6 d20c c4b2 8569 a3b0 74a1 00a9
00000310: bb44 b7b2 aa1a 7fad 7e45 cdb4 ebb0 3ab1
00000320: 6391 46b6 80d4 42b5 71e5 90af 3ff5 1ab5
00000330: dbc7 42b5 a8c5 d718 6800 b2b4 9ef5 1019
00000340: 71b4 c3b1 95c4 c61f 4f07 a998 ea93 29b0
00000350: 8789 e0b4 4245 f5a1 6e14 b7b2 9b5e 82b0
00000360: 0cad de97 d034 6cb5 de4f beb4 287f 5f19
00000370: 105f bdb5 ee30 caa5 bac1 cd23 e511 03b3
00000380: 216c 3cb4 fb73 7599 7aed 00a6 5fed ddaf
00000390: 714a 3bb4 f2e8 d3ad 7dad 28b2 02e5 f9b4
000003a0: 03d0 d21c a805 f096 174b e3b5 d399 14b2
000003b0: 6f54 a6b0 c082 91b5 702a 0eb3 a6f2 34b5
000003c0: 0c88 b6ab fe7d ac23 ce4f 9a18 9cc1 30a0
000003d0: fcb3 5318 0ebb b797 6d24 111b 6630 82b4
000003e0: 3a00 8fb4 1be5 46a8 64d5 f9a1 43a2 96b2
000003f0: 7ab1 8ab3 af64 98b3 3961 eca7 21b3 b7b0

lin1.bias f4 [32]
-5.0239364e-09 0.016669814 -0.018411135 -1.0298441e-07 -3.055009e-05 0.11148857 0.14209887 -0.02273286
-0.0003708894 0.2203423 -0.0167371 0.02314037 0.034493223 0.07411857 0.1646102 -1.6720984e-05
-1.2151673e-05 0.040052496 -1.3444316e-10 0.06850342 0.26571444 -0.00068087794 0.037990414 -2.1014193e-05
-0.04667159 -2.0000985e-18 -0.00012793133 -0.02921452 -0.101387165 -0.11718812 0.1580208 0.09380955
00000000: 039f acb1 228f 883c f3d2 96bc 4728 ddb3
00000010: e922 00b8 1f54 e43d 5e82 113e 433a babc
00000020: ef73 c2b9 69a1 613e 3e1c 89bc e090 bd3c
00000030: c448 0d3d 7acb 973d 948f 283e 0a44 8cb7
00000040: 0adf 4bb7 160e 243d 63d2 13af 854b 8c3d
00000050: b90b 883e f27c 32ba d69b 1b3d a347 b0b7
00000060: b62a 3fbd cb94 13a2 4e25 06b9 4a53 efbc
00000070: 13a4 cfbd 5300 f0bd 34d0 213e 391f c03d

lin2.weight f4 [10, 32]
2.42337e-39 -0.0012911656 2.925648e-36 -8.94404e-26 5.5951723e-09 -0.32123065 -0.12694502 -3.928456e-39
-0.00066906575 0.0242584 -0.0037900326 0.018278347 -0.20178068 -0.0028777127 0.20404126 0.0006162825
5.117485e-39 -0.045173272 -6.249571e-39 0.10528186 -0.046453457 0.0035803698 -0.02287172 -7.819736e-05
-0.011796349 5.039675e-18 -1.8139238e-07 -0.11114089 -0.4188783 -0.17760652 0.022812199 -0.313444
2.03553e-39 -0.0032141698 -1.111627e-34 2.5293091e-24 -2.8056866e-07 0.13953197 0.28824958 -7.846429e-11
-0.00070119154 -0.31654194 0.27300176 0.0074899253 -0.6770054 0.012462594 0.32078436 -0.002424486
3.497761e-39 0.027584847 -2.9099094e-36 0.28429532 -0.12225916 -0.018796047 0.3168165 -0.0018243149
0.15066093 -5.7553566e-17 -4.265187e-05 -0.5146951 -0.08574762 0.08878705 0.2616367 -0.29063022
-2.881836e-39 -0.0014487993 -6.9450314e-12 1.5095648e-24 1.1665243e-08 0.44149855 0.38059068 2.7589525e-05
9.881666e-11 -0.746172 -0.17674024 -0.8991744 0.07191867 -0.06680424 0.37025937 -0.0011347476
6.779315e-39 -0.060080174 -2.7687337e-22 -0.6660724 0.1437612 -0.023053244 0.38574168 -0.00094088254
-0.4193221 -6.400154e-17 -3.282903e-11 -0.37071002 0.251616 0.28858998 -0.4530665 0.16681133
3.428836e-39 -0.0068647885 1.486727e-35 1.0001429e-24 5.391848e-08 -0.22197546 -0.21033944 3.5274639e-34
-2.3686503e-06 0.156375 -0.08259568 0.14602146 0.042677335 0.008137807 -0.19815125 4.422038e-05
2.024836e-39 0.007861805 6.1489785e-12 0.10859638 -0.47415772 0.026826309 -0.12917294 -0.00070076133
0.046056654 -1.7017095e-17 0.00038670152 0.13205005 -0.23104575 -0.06970801 -0.04244677 -0.08950926
8.5035e-40 0.013386878 -1.3538426e-28 2.458261e-25 -8.589001e-08 -0.3070767 -0.6550179 -4.9898767e-22
0.0001990254 0.26262468 -0.41922122 0.049324855 0.2291679 0.0146164 -0.66811395 5.8819805e-05
-6.59481e-39 0.025619026 5.044067e-07 -0.2878796 -0.009667419 0.0043283263 -0.48934597 0.00046627937
-0.20047636 -1.5005281e-17 5.8392043e-06 0.20056213 0.045308042 -0.31630102 -0.4787698 0.15791218
2.006543e-39 0.0008760704 1.9085386e-10 -1.1810729e-24 1.4782776e-07 -0.13561842 -0.25781342 -2.0896022e-13
-0.0039412617 0.45264128 -0.31459853 0.006411654 0.12968087 -0.010387933 0.2743875 -0.002202141
-6.68669e-40 -0.017707298 -3.0513993e-15 -0.33607018 0.30429772 -0.019691115 -0.26645124 0.0065431255
-0.4208501 -1.4916227e-17 -4.61812e-08 0.049700256 -0.20254786 -0.42511457 -0.08687569 0.059945066
1.783001e-39 -0.010938953 2.4755432e-33 -4.9600727e-19 7.0520876e-08 -0.43810818 0.025534019 4.263685e-32
-0.00015412661 -0.10191626 -0.21709406 -0.061715264 0.119297445 -0.004227077 -0.19747531 9.022876e-05
6.96235e-40 0.08225453 -3.81592e-39 -0.16974695 -0.08484829 0.014927645 -0.09580665 -0.0005339822
-0.18725999 -2.3413028e-17 -2.0517606e-05 0.097687565 0.18601839 0.21212275 -0.36983293 0.16215317
3.509835e-39 0.00095796393 1.1022088e-37 -3.489952e-23 1.6188312e-07 -0.19746861 -0.23658235 -1.2066648e-17
-0.0025375327 0.18256082 0.24598023 0.13689072 -0.8250022 -0.012723303 0.008480195 6.1126566e-06
-3.169514e-39 0.03570797 -1.6948879e-09 0.34251782 -0.948572 -0.020374961 -0.075387724 0.00018163529
0.18694147 -2.0538188e-17 -0.00029002113 0.11031725 -0.8270669 -0.3413497 0.2612217 -0.90994585
00000000: 5f63 1a00 543c a9ba f9e2 7804 9771 dd95
00000010: a83f c031 5878 a4be e0fd 01be f0c6 2a80
00000020: 3e64 2fba 8db9 c63c 3262 78bb 79bc 953c
00000030: 989f 4ebe 0298 3cbb 31f0 503e 058e 213a
00000040: 77b9 3700 9c07 39bd 430d 4480 049e d73d
00000050: fb45 3ebd a3a4 6a3b 795d bbbc e3fd a3b8
00000060: 7945 41bc 62ee b922 c2c4 42b4 d69d e3bd
00000070: 3777 d6be 7cde 35be a6e0 ba3c bb7b a0be
00000080: 3b2a 1600 d2a4 52bb b5c2 1387 21b2 4318
00000090: 10a1 96b4 78e1 0e3e 7395 933e 788b acae
000000a0: 2bd0 37ba c911 a2be e3c6 8b3e 0c6e f53b
000000b0: 3a50 2dbf e82f 4c3c d93d a43e 20e4 1ebb
000000c0: 5616 2600 9ef9 e13c 378c 7784 288f 913e
000000d0: 0363 fabd 2bfa 99bc c635 a23e da1d efba
000000e0: dc46 1a3e a1b5 84a4 19e5 32b8 0fc3 03bf
000000f0: 739c afbd fcd5 b53d 3ff5 853e 7ccd 94be
00000100: 6361 1f80 a3e5 bdba 485b f4ac 0698 e917
00000110: 4868 4832 190c e23e c8dc c23e 0e70 e737
00000120: d64c d92e 2105 3fbf 65fb 34be 4b30 66bf
00000130: 184a 933d a9d0 88bd a392 bd3e d0bb 94ba
00000140: f9d1 4900 a116 76bd 145c a79b b983 2abf
00000150: 2336 133e 28da bcbc ef7f c53e 8fa5 76ba
00000160: 63b1 d6be d793 93a4 3462 10ae b4cd bdbe
00000170: d0d3 803e 11c2 933e 55f8 e7be 97d0 2a3e
00000180: 3356 2500 05f2 e0bb 8f18 9e05 bec3 9a17
00000190: ff93 6733 894d 63be 3963 57be b070 ea07
000001a0: 1af5 1eb6 c520 203e ed27 a9bd a686 153e
000001b0: 6ece 2e3d 7054 053c 29e8 4abe 4579 3938
000001c0: 6b0c 1600 cdce 003c 1359 d82c c767 de3d
000001d0: cdc4 f2be d9c2 db3c e945 04be 4cb3 37ba
000001e0: e7a5 3c3d 7bf4 9ca3 33be ca39 2138 073e
000001f0: 4297 6cbe 13c3 8ebd aadc 2dbd a250 b7bd
00000200: 6e42 0900 a354 5b3c b49e 2b91 b328 9816
00000210: 8872 b8b3 2839 9dbe 41af 27bf 4dcf 169c
00000220: 79b1 5039 be76 863e 2aa4 d6be dc08 4a3d
00000230: fdaa 6a3e a079 6f3c 8409 2bbf 49b5 7638
00000240: a6cf 4780 fede d13c 9166 0735 f464 93be
00000250: 1864 1ebc a2d4 8d3b 8e8b fabe f576 f439
00000260: ad49 4dbe 3866 8aa3 62ee c336 2960 4d3e
00000270: ed94 393d 35f2 a1be 5121 f5be bbb3 213e
00000280: 6dd9 1500 17a8 653a 96d8 512f 1ec3 b697
00000290: 96ba 1e34 8edf 0abe 1f00 84be af44 6baa
000002a0: b325 81bb 99c0 e73e 0f13 a1be da18 d23b
000002b0: 10cb 043e 2632 2abc 857c 8c3e cc51 10bb
000002c0: fa47 0780 e50e 91bc 62e0 5ba7 6411 acbe
000002d0: e9cc 9b3e 434f a1bc 4c6c 88be b767 d63b
000002e0: aa79 d7be f293 89a3 c458 46b3 7f92 4b3d
000002f0: b568 4fbe 9ea8 d9be e2eb b1bd f588 753d
00000300: 486a 1300 4b39 33bc fba8 4d09 4065 12a1
00000310: 4371 9733 b74f e0be b82c d13c 1862 5d0b
00000320: 0c9d 21b9 79b9 d0bd e84d 5ebe 25c9 7cbd
00000330: 3852 f43d 4b83 8abb f836 4abe 3239 bd38
00000340: d294 0700 1075 a83d 3c8d 2980 25d2 2dbe
00000350: f1c4 adbd 1593 743c 4736 c4bd f0fa 0bba
00000360: 15c1 3fbe 73f2 d7a3 391d acb7 6b10 c83d
00000370: 9b7b 3e3e b536 593e be5a bdbe 7b0b 263e
00000380: fe37 2600 df1f 7b3a 5f06 1602 83c3 289a
00000390: 18d2 2d34 3635 4abe a542 72be 2297 5ea3
000003a0: bc4c 26bb 39f1 3a3e 3ee2 7b3e 152d 0c3e
000003b0: 5833 53bf 6775 50bc 84f0 0a3c 521b cd36
000003c0: 5183 2280 8542 123d 91f1 e8b0 7f5e af3e
000003d0: 9dd5 72bf 64e9 a6bc e164 9abd 5a75 3e39
000003e0: 966d 3f3e 6d6e bda3 fa0d 98b9 03ee e13d
000003f0: a8ba 53bf 63c5 aebe dabe 853e 36f2 68bf

lin2.bias f4 [10]
-0.11842541 -0.25062364 -0.08620452 -0.061659623 -0.36803305 0.29562625 -0.17176598 0.2969425
-0.36713716 0.10758137
00000000: 0589 f2bd be51 80be ff8b b0bd cd8e 7cbd
00000010: d46e bcbe 535c 973e 6ce3 2fbe d908 983e
00000020: 67f9 bbbe 9f53 dc3d
