first_results_daniel/best_model_cpu.pth (torch, 31023 bytes, 8 tensors)

conv1.bias f4 [64]
0.06650156 0.045613345 0.093831815 0.04129038 0.061695945 -0.016221363 0.056762546 0.06049957
0.093322106 0.047287885 0.042091765 0.049013365 0.027080294 0.048631854 0.023396486 0.05729799
0.034737438 0.033512257 -0.011625179 0.03191435 0.002471505 0.08267094 0.045227807 -0.012555533
0.075542994 0.04975684 0.07292756 -0.04071099 0.034879442 -0.019574357 0.0629217 0.009395428
0.027000124 0.05291033 0.03794177 0.0021051203 0.060323406 0.013012368 0.023839982 0.026288353
0.02207068 0.009248673 -0.023390044 0.037458967 0.05811694 0.03800087 0.04634423 0.036916114
0.030578777 0.03980762 -0.01178237 -0.035583705 0.01343968 -0.013522097 0.027245121 0.10800124
0.060662538 -0.019430224 0.041628364 0.017839374 0.035787053 0.016290678 0.0083761215 0.045031205
00000000: f831 883d 0fd5 3a3d e52a c03d 1a20 293d
00000010: e3b4 7c3d aae2 84bc d87f 683d 66ce 773d
00000020: a91f bf3d f1b0 413d 6a68 2c3d 3dc2 483d
00000030: 7ed7 dd3c 3232 473d fda9 bf3c 4cb1 6a3d
00000040: d848 0e3d 2644 093d 8977 3ebc 9fb8 023d
00000050: f9f8 213b 624f a93d cb40 393d b9b5 4dbc
00000060: 49b6 9a3d d4cd 4b3d 0b5b 953d 91c0 26bd
00000070: bfdd 0e3d 675a a0bc 18dd 803d 48ef 193c
00000080: 5d2f dd3c 81b8 583d d468 1b3d 0ff6 093b
00000090: ad15 773d d431 553c 114c c33c ac5a d73c
000000a0: 92cd b43c bf87 173c 7a9c bfbc 936e 193d
000000b0: 070c 6e3d cda6 1b3d 73d3 3d3d 5a35 173d
000000c0: 5880 fa3c 510d 233d d70a 41bc 38c0 11bd
000000d0: 1b32 5c3c c98b 5dbc 2931 df3c c12f dd3d
000000e0: 4879 783d 222c 9fbc 8182 2a3d e123 923c
000000f0: 7295 123d 0774 853c 003c 093c a472 383d

conv1.lin.weight f4 [64, 3]
0.35018045 0.29258528 0.04673092 -0.19547868 0.09088739 -0.067535825 0.12482286 0.0799336
-0.3787028 -0.24812967 0.30739313 0.1554189 0.043729194 -0.19360377 -0.27609318 -0.43051076
0.017063111 -0.015757008 0.29880595 0.2629395 -0.13896106 -0.2519016 -0.062740035 0.3971389
0.011747659 -0.12804027 0.3350415 -0.13196872 -0.2627311 0.18736574 0.023025494 -0.05592634
-0.47993815 0.3480085 0.24517873 0.21824576 -0.35126784 -0.35290012 -0.2784886 0.37104338
0.15162821 0.32934502 0.32105207 0.039190307 -0.006984072 -0.3430673 -0.19617026 -0.41872013
0.24657007 -0.18313476 -0.05448064 -0.28824416 -0.14838217 -0.2338427 -0.33974934 0.11838398
-0.033891045 0.30534536 -0.069836214 -0.32584465 -0.046243016 -0.20242079 0.061352435 -0.33021936
0.20255299 -0.3000349 0.29954177 0.124299355 0.2875675 -0.3071509 0.3080209 -0.09458704
0.2639666 0.29861662 0.039454 0.07683511 -0.017182061 -0.38756007 0.25340027 -0.39036328
0.27305737 0.06186586 0.42675948 -0.15199164 -0.38321468 0.037908528 0.22140367 -0.3612996
0.022152746 -0.02831925 0.07133324 -0.14479455 -0.26035702 -0.012107888 -0.47595984 0.25693458
0.37843737 -0.027742798 0.0063102203 -0.25165096 -0.25252762 -0.40462458 0.27200526 -0.16514714
-0.3019599 -0.017607188 -0.2303177 0.092888474 -0.053937357 -0.10378268 -0.19453506 -0.04829649
-0.3858191 0.24385709 -0.24123962 -0.0055053937 -0.1765791 0.090301946 0.39863858 0.11334534
-0.39410672 0.048031636 0.4230864 0.12239087 0.32667717 0.1405073 -0.22983482 0.044894375
-0.05342013 -0.17839687 0.27205586 0.20161496 -0.3103771 -0.2804752 -0.31159073 -0.37495908
-0.36131695 0.017952135 0.3009657 -0.019426012 -0.40032235 -0.39696833 0.22423851 -0.1723186
-0.10817895 0.3018646 -0.2063114 -0.12010153 -0.07267061 -0.18588124 -0.1107909 -0.35115767
-0.07333618 -0.04603231 0.45471212 -0.18631487 -0.2964262 0.07545575 0.11382812 0.123882025
0.34558627 0.025305351 -0.4482181 0.0804997 0.13665394 0.026204323 -0.26993725 0.37162787
-0.24549848 -0.21059701 -0.36610135 -0.06234944 0.20948437 -0.045480885 0.04264404 -0.32924038
-0.22535194 -0.033623382 0.35063455 0.14432903 -0.28133756 -0.047711402 -0.32477516 -0.26109636
0.033779424 0.2172974 0.08168371 -0.46443573 0.24848936 -0.30204636 0.20516425 0.21671246
00000000: da4a b33e bdcd 953e ec68 3f3d 902b 48be
00000010: 2b23 ba3d 3950 8abd 21a3 ff3d 3ab4 a33d
00000020: 55e5 c1be b415 7ebe a262 9d3e 2226 1f3e
00000030: 621d 333d 1140 46be 165c 8dbe e86b dcbe
00000040: f0c7 8b3c d714 81bc 18fd 983e 02a0 863e
00000050: cf4b 0ebe 3ff9 80be d97d 80bd ca55 cb3e
00000060: 4179 403c fd1c 03be 8f8a ab3e cf22 07be
00000070: b184 86be cedc 3f3e f69f bc3c 0513 65bd
00000080: 74ba f5be 2c2e b23e 2210 7b3e d17b 5f3e
00000090: 61d9 b3be 53af b4be 0f96 8ebe 66f9 bd3e
000000a0: 6d44 1b3e e99f a83e f060 a43e 0486 203d
000000b0: a4da e4bb 84a6 afbe dbe0 48be 7c62 d6be
000000c0: dd7c 7c3e ae87 3bbe 1727 5fbd bd94 93be
000000d0: 7ff1 17be 7674 6fbe a0f3 adbe 4d73 f23d
000000e0: 56d1 0abd 3a56 9c3e 4a06 8fbd 1cd5 a6be
000000f0: 5169 3dbd 6547 4fbe b14c 7b3d 8312 a9be
00000100: 0d6a 4f3e 2d9e 99be 8a5d 993e a990 fe3d
00000110: 0c3c 933e e242 9dbe eab4 9d3e dab6 c1bd
00000120: a126 873e 47e4 983e 849a 213d ba5b 9d3d
00000130: 65c1 8cbc 466e c6be aebd 813e b2dd c7be
00000140: 2dce 8b3e 0e67 7d3d 3880 da3e b2a3 1bbe
00000150: b734 c4be f945 1b3d a5b7 623e 43fc b8be
00000160: ad79 b53c c6fd e7bc 2917 923d 0645 14be
00000170: 844d 85be 2a60 46bc 02b1 f3be ee8c 833e
00000180: 8bc2 c13e dd44 e3bc f7c5 ce3b 65d8 80be
00000190: 4d4b 81be f42a cfbe 4644 8b3e 551c 29be
000001a0: 7d9a 9abe f33c 90bc 67d8 6bbe 503c be3d
000001b0: 6bed 5cbd 048c d4bd 3334 47be 8ad2 45bd
000001c0: 158a c5be acb5 793e 8507 77be 9766 b4bb
000001d0: 27d1 34be 3af0 b83d 5b1a cc3e 9a21 e83d
000001e0: 5bc8 c9be d2bc 443d c89e d83e 10a8 fa3d
000001f0: 3b42 a73e 25e1 0f3e d259 6bbe 2ae3 373d
00000200: 11cf 5abd abad 36be e84a 8b3e 2774 4e3e
00000210: bfe9 9ebe 729a 8fbe d288 9fbe a3fa bfbe
00000220: 89fe b8be 5b10 933c 2d18 9a3e 4d23 9fbc
00000230: 0df7 ccbe 6f3f cbbe c89e 653e 4974 30be
00000240: ed8c ddbd ff8d 9a3e 4c43 53be caf7 f5bd
00000250: 54d4 94bd a757 3ebe 57e6 e2bd f0ca b3be
00000260: 4731 96bd 608c 3cbd 07d0 e83e 53c9 3ebe
00000270: 2dc5 97be 8b88 9a3d b81e e93d dcb5 fd3d
00000280: aff0 b03e 2b4d cf3c d87c e5be 07dd a43d
00000290: 03ef 0b3e 73aa d63c 3735 8abe 0246 be3e
000002a0: f463 7bbe bea6 57be a371 bbbe 2062 7fbd
000002b0: 1283 563e 2a4a 3abd 84ab 2e3d 3292 a8be
000002c0: a9c2 66be acb8 09bd 5f86 b33e fdca 133e
000002d0: 7a0b 90be 086d 43bd ee48 a6be 6cae 85be
000002e0: 4b5c 0a3d 3683 5e3e ca49 a73d 85ca edbe
000002f0: ff73 7e3e d2a5 9abe 9416 523e dfe9 5d3e

conv2.bias f4 [64]
0.028601257 0.051201764 -0.021824848 0.06259476 0.062168922 0.0054954044 0.036291305 -0.011423463
0.016803484 -0.03353238 -0.011839959 0.029879486 0.00840812 0.024539812 0.022797216 0.039571688
0.03859547 0.037337314 0.107924186 -0.01015356 0.026054665 -0.021982176 0.053583734 0.06384856
0.015574557 0.04929916 -0.026858987 -0.017340625 -0.016622823 -0.0025913531 0.06840268 0.035647858
0.041867867 0.055663303 0.00861814 0.064103514 0.020657616 0.0700146 0.06973823 0.029594406
-0.019311557 0.055310015 0.015851608 0.038351696 0.047928944 0.005051063 -0.035868227 0.007720747
-0.0146940965 -0.0408917 0.032078218 0.00087461865 0.03638628 -0.0161452 0.06678573 0.049056612
0.04031004 0.06224165 -0.009118564 -0.011149521 0.05406291 0.04861868 0.07311161 -0.0030568396
00000000: 2f4d ea3c f1b8 513d 06ca b2bc ae31 803d
00000010: d7a4 7e3d cb12 b43b 31a6 143d 7a29 3bbc
00000020: 76a7 893c 4059 09bd 63fc 41bc d3c5 f43c
00000030: 36c2 093c b707 c93c 3ac1 ba3c ec15 223d
00000040: 4916 1e3d 03ef 183d 5b07 dd3d 1e5b 26bc
00000050: 9870 d53c f713 b4bc 9e7a 5b3d 09c3 823d
00000060: 6d2c 7f3c eaed 493d 6107 dcbc ed0d 8ebc
00000070: 962c 88bc b1d3 29bb b416 8c3d 7d03 123d
00000080: a47d 2b3d 34ff 633d 1933 0d3c b448 833d
00000090: 293a a93c d163 8f3d ebd2 8e3d f86f f23c
000000a0: 4533 9ebc c18c 623d 3bdb 813c ab16 1d3d
000000b0: 2451 443d 6383 a53b 90ea 12bd 52fe fc3b
000000c0: 82bf 70bc 0e7e 27bd 7364 033d aa46 653a
000000d0: c809 153d f042 84bc f5c6 883d 96ef 483d
000000e0: 241c 253d 1af1 7e3d 0866 15bc 7bac 36bc
000000f0: 1271 5d3d 6224 473d 8abb 953d 4255 48bb

conv2.lin.weight f4 [64, 64]
0.062750064 -0.12757531 0.17727798 0.25576273 -0.17243393 0.13181414 0.22009027 -0.24704622
-0.22708757 0.0431474 -0.081766695 0.16405395 -0.11766722 0.118271254 0.23404777 -0.09738867
-0.021952178 -0.21464092 0.071353234 0.10690897 -0.11859501 0.06393935 0.22913913 0.047524888
0.018418362 -0.15045442 -0.087592095 0.13919173 -0.161323 0.18644536 -0.108128615 -0.10326265
0.07952382 0.039906982 -0.14762118 -0.13270107 -0.18806355 -0.23042852 -0.059911005 0.2713132
-0.1355718 -0.022521786 -0.09797515 -0.01322681 -0.051525388 -0.12452295 0.0042467997 0.15159637
0.052645348 0.02916419 0.011374002 0.32130283 0.062236484 0.2972317 0.22054082 0.035559252
0.041386683 -0.017938264 -0.16942309 0.1910631 0.0509665 0.21912968 -0.015882477 0.044022273
0.114601 0.053439815 0.23748438 -0.12866884 0.0006731848 0.124622844 0.093480565 -0.06961854
0.054315835 0.14996967 0.18528466 0.16261902 -0.034869783 -0.058158655 -0.07932048 -0.032685373
-0.11412814 0.1886447 0.09210206 0.0031355936 0.06991095 0.05082268 0.16036712 -0.14671843
0.09671545 0.01888373 0.12054633 -0.24906121 0.1989373 0.0371649 0.18724139 -0.26620296
0.0647711 0.018425718 -0.011934756 -0.19369443 0.020649776 -0.048026145 0.20421821 -0.07553743
0.33304912 -0.10027195 -0.091498174 -0.0037527313 0.016284458 0.08101726 0.31566954 0.06784665
-0.26661932 0.024367848 -0.0594493 -0.34823588 0.16721767 0.13533309 0.21064395 0.03036098
0.07241289 -0.19902231 0.019891778 0.15445954 -0.0020895866 0.16022193 -0.22858147 0.015578515
0.09182936 -0.12989353 0.065263234 -0.12385899 -0.17677772 0.10065356 0.2554816 -0.13051343
-0.26994836 -0.26947352 -0.13165715 -0.042953216 0.094827615 -0.11716518 0.14944321 -0.035089936
-0.15528093 0.09655612 0.11464236 -0.07857175 -0.12615357 -0.025288172 0.07710736 0.22582346
0.009424937 -0.14573587 -0.279567 0.24241634 0.1402101 0.11095316 -0.22082284 0.093448676
-0.06705195 0.024344292 0.017931668 -0.1380158 -0.07111312 0.008214089 -0.14031228 0.2626909
0.08850436 0.23671493 0.00048660263 -0.06336437 -0.18878354 -0.0002441919 -0.08235348 0.18475257
0.24292447 -0.067022204 -0.18999049 0.18647975 0.14586625 0.044876695 -0.14281896 -0.18743475
-0.056473807 -0.04161279 0.040167913 0.15359204 -0.13135192 -0.12727931 -0.10185077 0.16165155
0.15597405 0.115536824 0.048131887 0.08034783 0.25210553 0.13767323 -0.07299595 0.12817611
-0.032347243 0.00090176845 -0.057021566 0.04462421 0.05816592 -0.05703877 0.20401098 0.26303387
-0.13726737 0.13533966 -0.08624094 0.029403295 0.07195714 0.034057345 0.13657911 -0.047831155
0.22227217 -0.027076121 0.038928904 -0.025629336 0.2077123 0.100860655 0.18870726 0.0039922236
0.21060829 0.06464963 0.13318822 0.15649955 -0.0013399458 -0.12563635 0.22084679 0.103167154
-0.13594984 0.10869301 -0.14671093 -0.07644131 0.13859366 0.14073132 0.022122312 0.22531652
0.2131985 0.2410615 -0.17724316 -0.12997305 0.073037796 0.18504892 0.028856045 0.07108327
0.18184905 -0.12513827 -0.08445921 0.2316876 0.0777569 0.20682423 -0.23292777 -0.028306222
00000000: 1b83 803d 1aa3 02be 5c88 353e 55f3 823e
00000010: 8592 30be 49fa 063e 585f 613e aff9 7cbe
00000020: a589 68be 54bb 303d 4c75 a7bd c2fd 273e
00000030: 83fb f0bd 3338 f23d 38aa 6f3e b673 c7bd
00000040: 0ed5 b3bc d4ca 5bbe a521 923d 17f3 da3d
00000050: f1e1 f2bd a2f2 823d 73a3 6a3e 75a9 423d
00000060: 1be2 963c b910 1abe 7c63 b3bd 4788 0e3e
00000070: db31 25be 88eb 3e3e 8972 ddbd 5e7b d3bd
00000080: 62dd a23d 8175 233d 022a 17be cae2 07be
00000090: bb93 40be 74f5 6bbe 3e65 75bd 90e9 8a3e
000000a0: 55d3 0abe 9c7f b8bc 32a7 c8bd 43b5 58bc
000000b0: 490c 53bd e305 ffbd bd28 8b3b 143c 1b3e
000000c0: a6a2 573d bde9 ee3c 065a 3a3c ce81 a43e
000000d0: afeb 7e3d c12e 983e 74d5 613e 94a6 113d
000000e0: 1585 293d 44f3 92bc 3f7d 2dbe 0ca6 433e
000000f0: 40c2 503d 8863 603e f81b 82bc b350 343d
00000100: eeb3 ea3d b5e3 5a3d 1b2f 733e c4c1 03be
00000110: ab78 303a 433a ff3d bd72 bf3d 2a94 8ebd
00000120: 487a 5e3d a691 193e 43bb 3d3e 9a85 263e
00000130: 9ed3 0ebd c537 6ebd c772 a2bd 19e1 05bd
00000140: 04bc e9bd 142c 413e 01a0 bc3d 887e 4d3b
00000150: 792d 8f3d 712b 503d 4737 243e 5b3d 16be
00000160: c012 c63d 0db2 9a3c ffe0 f63d e709 7fbe
00000170: 38b6 4b3e 393a 183d 35bc 3f3e c14b 88be
00000180: b6a6 843d 88f1 963c ff89 43bc d557 46be
00000190: b829 a93c 10b7 44bd 941e 513e 5eb3 9abd
000001a0: 6a85 aa3e 615b cdbd 6563 bbbd 62f0 75bb
000001b0: fc66 853c 61ec a53d 709f a13e 2ff3 8a3d
000001c0: 5482 88be 159f c73c 1c81 73bd f94b b2be
000001d0: 1c3b 2b3e c294 0a3e 0cb3 573e 97b7 f83c
000001e0: 364d 943d 81cc 4bbe 15f4 a23c a42a 1e3e
000001f0: 72f1 08bb 3811 243e 4311 6abe 073d 7f3c
00000200: 0811 bc3d cf02 05be bba8 853d c8a9 fdbd
00000210: 3805 35be 7423 ce3d 7cce 823e 50a5 05be
00000220: ac36 8abe 6ff8 89be 22d1 06be b6ef 2fbd
00000230: fb34 c23d 4cf4 efbd a407 193e 77ba 0fbd
00000240: f701 1fbe 37bf c53d 9dc9 ea3d 3aea a0bd
00000250: 672e 01be 2429 cfbc 77ea 9d3d 443e 673e
00000260: 0d6b 1a3c c93b 15be 6823 8fbe fd3b 783e
00000270: 3d93 0f3e 693b e33d 621f 62be 0562 bf3d
00000280: 8852 89bd ae6d c73c 6fe5 923c 0454 0dbe
00000290: c1a3 91bd 6394 063c 06ae 0fbe 6c7f 863e
000002a0: c641 b53d 6665 723e b31e ff39 2ec5 81bd
000002b0: 7950 41be e206 80b9 f1a8 a8bd c72f 3d3e
000002c0: 31c1 783e f042 89bd de8c 42be 8cf4 3e3e
000002d0: f65d 153e a0d0 373d 223f 12be e5ee 3fbe
000002e0: 1451 67bd 2c72 2abd 1c87 243d 3b47 1d3e
000002f0: 1e81 06be 8255 02be 2397 d0bd fc87 253e
00000300: a9b7 1f3e 929e ec3d f125 453d 678d a43d
00000310: fa13 813e 36fa 0c3e e77e 95bd 9940 033e
00000320: 8b7e 04bd a864 6c3a 728f 69bd e0c7 363d
00000330: 633f 6e3d 7ca1 69bd 41e8 503e 60ac 863e
00000340: d18f 0cbe 7b96 0a3e 179f b0bd 2edf f03c
00000350: 445e 933d b77f 0b3d 65db 0b3e 9aea 43bd
00000360: 519b 633e bece ddbc ea73 1f3d 9df4 d1bc
00000370: 88b2 543e 0890 ce3d 7a3c 413e 33d1 823b
00000380: b3a9 573e 0667 843d 7e62 083e 6b41 203e
00000390: 1fa1 afba d1a6 00be a925 623e 4d49 d33d
000003a0: 6f36 0bbe 719a de3d 643b 16be 438d 9cbd
000003b0: 7feb 0d3e df1b 103e da39 b53c 60b9 663e
000003c0: b550 5a3e d3d8 763e 3b7f 35be a817 05be
000003d0: d794 953d 777d 3d3e 8363 ec3c 1b94 913d
000003e0: a336 3a3e 3f24 00be f3f8 acbd 843f 6d3e
000003f0: 023f 9f3d bbc9 533e 9e84 6ebe 73e2 e7bc

lin1.weight f4 [32, 64]
-0.003970951 -0.023958739 0.00258855 0.013236431 -0.0042337077 0.018789327 -0.018515375 0.012711046
0.05850786 0.012879611 -0.0065477756 0.044687517 -0.004393846 -0.016810924 0.026932813 0.010249217
0.027196744 0.0603104 0.0063043362 0.014749647 0.017692769 -0.025557974 -0.00027730627 3.1017888e-05
0.001957812 -0.0064707617 -0.0008925765 1.025987e-05 -0.018194996 4.0025014e-05 -0.02069371 0.012227804
-0.05704854 -0.006635995 -0.0018325957 0.008758368 -0.055610336 3.5038079e-06 -0.02544138 -0.005202952
-0.0015594751 -0.0028974572 8.346359e-07 0.0051638405 0.016945751 0.04251173 0.042719144 0.017500117
0.00063655665 0.013742016 -0.023303393 0.0018043785 -5.190657e-07 -0.011058666 -0.00017952741 0.007611136
0.014471987 -0.0035995587 -0.019094149 -0.019446056 0.037111185 -0.035294566 -0.0415955 -0.0005207808
0.010105696 0.035656907 0.008370207 0.02399358 -0.037335563 -0.086338624 -0.055373494 -0.04342291
-0.060425848 -0.05883871 -0.046144694 -0.05401588 0.013924577 -0.0050114836 -0.003324959 0.009374216
-0.103594996 -0.052423883 -0.007985091 -0.08348112 0.0313704 -0.060665093 0.023400618 0.027674098
0.0072650826 4.0084025e-05 0.0426584 -0.0013657828 -0.0060719545 0.0039837263 0.0694412 -0.004290224
-0.018481284 -0.017048117 -0.09794699 0.0058905007 -0.06682716 -0.00089219405 -0.033288114 0.042350337
4.754151e-05 0.01149 3.930443e-06 -0.030191302 -0.048098 0.06559821 -0.0024330579 -0.093142726
4.0549486e-07 0.0229381 -0.018689224 0.006495475 0.012923697 -0.019589417 0.053671107 0.008029491
-0.009827143 -0.01733886 0.016105104 -0.035864703 0.050797485 -0.101866916 -0.051277842 0.010491378
-0.08098178 -0.018172955 -0.03054085 0.0310055 -0.0055071954 -0.063301116 0.05976385 -0.031166684
-0.0043924334 0.0030917136 -0.055362158 -0.0053054006 -0.020804826 -0.0013749215 -0.022018332 0.00040027124
-0.03779632 -0.039451968 0.016715558 0.004554442 -0.00642024 -0.0044989134 0.072623536 -0.016639937
-0.01770941 -0.011720657 -0.00016803255 8.8751585e-06 -0.0054631224 -0.0048688105 -0.06385109 -0.05923816
0.043390185 -0.0060558952 -0.0024796885 -0.08611687 0.032841288 -0.0062060724 0.081518434 -0.07320433
-0.0037369772 -3.3556823e-06 0.0026407111 0.04429735 0.07852162 0.034349907 0.01571182 -0.036278654
0.011475914 -0.006577333 0.022659136 1.341329e-05 -5.933415e-05 -0.0010249681 -0.0051359744 0.034342177
0.05296461 -0.0036295706 -0.0034585567 -0.00026021543 0.062335856 -0.04303993 0.06012864 6.030191e-06
-3.692099e-05 -5.760713e-06 0.00026734063 -0.0051251547 1.3516147e-05 -0.0057649077 -2.9407565e-07 0.0028635543
-0.0040298305 -0.002301306 -9.188243e-06 -6.783452e-09 2.0779632e-07 -0.0029455177 1.4105431e-06 -3.1261231e-06
7.870398e-06 6.360693e-08 -6.26431e-06 -5.5330156e-07 -0.00056172063 0.00074383494 1.4372843e-06 -1.3294462e-05
0.0057009426 -1.4701175e-06 -4.534553e-05 0.0011836494 1.8113856e-07 0.00416714 1.7580078e-08 0.0033885988
9.637763e-07 -2.8296556e-06 -3.6688838e-05 3.583118e-05 0.00603726 6.0417506e-08 1.2060516e-06 -0.0017747995
-3.3217664e-06 0.00044548063 -0.00026570132 -2.781272e-07 0.006211597 -0.009547431 -9.538891e-08 -6.976231e-08
0.00048116536 6.6372827e-06 -0.011001252 -0.00018242325 -2.0951602e-06 -0.0017447865 -0.0053252997 8.1079286e-08
4.3857435e-06 -0.00023633157 -8.703481e-06 -4.207741e-05 -0.00072104397 -0.004113367 2.6559446e-06 0.0034954257
00000000: c01e 82bb 1e45 c4bc aaa4 293b 9edd 583c
00000010: eaba 8abb 13ec 993c 8ead 97bc fe41 503c
00000020: f0a5 6f3d 0105 533c b98e d6bb 420a 373d
00000030: 40fa 8fbb 10b7 89bc 34a2 dc3c 55ec 273c
00000040: b5cb de3c 0a08 773d 9b94 ce3b 81a8 713c
00000050: 6df0 903c f55e d1bc 6b63 91b9 3419 0238
00000060: a34e 003b af08 d4bb ccfb 69ba ce21 2c37
00000070: ac0d 95bc 88e0 2738 db85 a9bc 2157 483c
00000080: bbab 69bd c372 d9bb b533 f0ba 427f 0f3c
00000090: aac7 63bd f622 6b36 716a d0bc 867d aabb
000000a0: 4d67 ccba 44e3 3dbb be0b 6035 6f35 a93b
000000b0: d1d1 8a3c c820 2e3d 45fa 2e3d 685c 8f3c
000000c0: 98de 263a 3126 613c c2e6 bebc e580 ec3a
000000d0: ec55 0bb5 682f 35bc 863f 3cb9 d666 f93b
000000e0: ea1b 6d3c 93e6 6bbb 556b 9cbc 564d 9fbc
000000f0: e601 183d 0991 10bd 0b60 2abd 0285 08ba
00000100: 5c92 253c fa0c 123d 3123 093c 2f8e c43c
00000110: 2ded 18bd 4ed2 b0bd 51cf 62bd 39dc 31bd
00000120: 1881 77bd dc00 71bd 3802 3dbd c13f 5dbd
00000130: e923 643c 5f37 a4bb 8ee7 59bb 5096 193c
00000140: 9d29 d4bd 6dba 56bd e6d3 02bc 26f8 aabd
00000150: 407e 003d f67b 78bd a7b2 bf3c cab4 e23c
00000160: ee0f ee3b e51f 2838 93ba 2e3d 1104 b3ba
00000170: 3ff7 c6bb eb89 823b 3037 8e3d 0295 8cbb
00000180: 1066 97bc 7ea8 8bbc 6e98 c8bd 1a05 c13b
00000190: aedc 88bd 21e2 69ba 1e59 08bd 8c77 2d3d
000001a0: 4f67 4738 8e40 3c3c 40e2 8336 c053 f7bc
000001b0: 6902 45bd 5b58 863d f073 1fbb 9dc1 bebd
000001c0: cab2 d934 afe8 bb3c 251a 99bc fed7 d43b
000001d0: eabd 533c fc79 a0bc 3cd6 5b3d 208e 033c
000001e0: 0602 21bc 3a0a 8ebc daee 833c dee6 12bd
000001f0: 0611 503d 9a9f d0bd b708 52bd 07e4 2b3c
00000200: c7d9 a5bd 73df 94bc ce30 fabc 3fff fd3c
00000210: b475 b4bb 04a4 81bd f0ca 743d 4651 ffbc
00000220: 67ee 8fbb 599e 4a3b 6ec3 62bd edd8 adbb
00000230: e26e aabc b636 b4ba ca5f b4bc 7fdb d139
00000240: 50d0 1abd 6398 21bd 11ef 883c 6e3d 953b
00000250: e060 d2bb 9f6b 93bb a6bb 943d 7a50 88bc
00000260: 5313 91bc 0008 40bc e531 30b9 84e6 1437
00000270: fe03 b3bb 8b8a 9fbb 5cc4 82bd b6a3 72bd
00000280: e8b9 313d 8870 c6bb 4582 22bb 0b5e b0bd
00000290: 9684 063d 4f5c cbbb 23f3 a63d 27ec 95bd
000002a0: 13e8 74bb 2f32 61b6 c80f 2d3b 2371 353d
000002b0: f1cf a03d 7db2 0c3d 13b6 803c ed98 14bd
000002c0: 7905 3c3c ab86 d7bb a79f b93c a409 6137
000002d0: 8fdd 78b8 3958 86ba ad4b a8bb 62aa 0c3d
000002e0: 6bf1 583d 17de 6dbb f4a8 62bb 866d 88b9
000002f0: e253 7f3d a34a 30bd 7349 763d f256 ca36
00000300: 9cdb 1ab8 264c c1b6 da29 8c39 eaf0 a7bb
00000310: 69c3 6237 8de7 bcbb 73e1 9db4 78aa 3b3b
00000320: ab0c 84bb 82d1 16bb 3427 1ab7 e013 e9b1
00000330: 9e1e 5f34 9609 41bb e451 bd35 63ca 51b6
00000340: 1a0b 0437 4898 8833 0332 d2b6 9886 14b5
00000350: 6f40 13ba ebfd 423a b6e8 c035 480b 5fb7
00000360: f9ce ba3b da50 c5b5 6431 3eb8 af24 9b3a
00000370: fd7e 4234 818c 883b 0003 9732 4113 5e3b
00000380: 1a5b 8135 1de5 3db6 57e2 19b8 7049 1638
00000390: 35d4 c53b e0be 8133 9edf a135 64a0 e8ba
000003a0: 83eb 5eb6 668f e939 d44d 8bb9 8351 95b4
000003b0: a78a cb3b d46c 1cbc 9cd8 ccb3 3cd0 95b3
000003c0: ec44 fc39 d3b5 de36 983e 34bc de48 3fb9
000003d0: 949a 0cb6 52b1 e4ba da7f aebb cf1d ae33
000003e0: 4029 9336 c6cf 77b9 2b05 12b7 467c 30b8
000003f0: 7104 3dba 6cc9 86bb c83c 3236 8313 653b

lin1.bias f4 [32]
-0.046744585 0.023215659 -0.032442443 6.877961e-06 -1.3514878e-05 0.14719519 0.12667462 -0.06618347
4.2131182e-06 0.110694595 0.02955847 -0.0055278987 0.05950092 0.07892773 0.04407253 -0.009231894
-0.038539395 0.04484462 1.8849158e-06 0.06010066 0.10613582 -0.00015943669 0.06904777 -5.774737e-07
-0.005372774 -0.0053631407 -0.00299235 8.0962e-07 -0.0014742378 0.07719773 0.05290361 0.13276123
00000000: 4077 3fbd c42e be3c 5ee2 04bd 3cc9 e636
00000010: f6bd 62b7 56ba 163e feb6 013e 338b 87bd
00000020: 695e 8d36 d9b3 e23d 9b24 f23c 6023 b5bb
00000030: 3db7 733d dda4 a13d 6685 343d 5f41 17bc
00000040: 7cdb 1dbd feae 373d 37fd fc35 1c2c 763d
00000050: bd5d d93d 762e 27b9 eb68 8d3d b103 1bb5
00000060: 180e b0bb 49bd afbb 4d1b 44bb aa54 5935
00000070: 363b c1ba d819 9e3d 75b1 583d 8ff2 073e

lin2.weight f4 [10, 32]
-9.824018e-07 0.011781817 0.0014797479 -1.1809733e-05 -0.0011433274 -0.28851625 -0.28495657 1.1467106e-06
-0.0006295651 -0.05383995 -0.09132439 0.018683467 -0.15810874 -0.01420478 -0.010204298 6.092672e-07
-0.045292486 -0.111718945 -0.013566941 0.045060858 -0.0026577292 -0.032311484 -0.10461919 -0.030322963
4.824061e-07 -0.034897525 0.0033678296 -0.042629346 6.05447e-06 0.023030236 -0.19610028 -0.2259034
0.031814963 -0.06531454 -0.0004943842 0.0031013654 5.7960206e-06 -0.10379576 0.1680169 0.0007899578
-0.006687506 -0.063859135 0.010010753 -2.2854803e-05 -0.03272479 0.036932196 0.13681397 0.04309353
0.03843199 0.07968509 0.0035194163 0.09938674 -0.086752586 0.1202092 0.14300384 0.0082518915
3.9573002e-05 -0.00072118436 -0.0024574618 -0.024582313 1.3931659e-06 0.13388397 0.06413439 -0.082659535
2.7582146e-06 -0.092032626 -0.035554804 1.4217064e-06 -0.0040840893 0.09248214 0.22729357 -5.30739e-07
0.01737526 -0.124912746 0.050240364 -0.041777562 0.1474257 -0.115785785 0.25533867 -0.026467765
-0.09467192 -0.08800241 9.649568e-06 -0.08669596 0.1553254 -0.03056987 0.19455923 -3.76613e-06
8.0440884e-07 -1.2597254e-05 -0.014073182 -4.099816e-05 0.031155959 0.21562506 -0.041628666 0.15995492
-1.5716382e-06 0.13069147 -0.00069239346 -3.57732e-07 -1.3437312e-05 -0.0095572015 -0.20738441 -0.043434523
-2.73162e-07 -0.13446799 -0.14824861 -2.74916e-05 -0.036405284 0.07390735 -0.10145261 -2.479502e-07
0.07997792 0.018409425 0.010164942 -0.060872912 -0.27019134 -0.040451225 -0.027907552 5.842782e-06
-0.0025965488 0.038934432 -0.03425347 3.7324486e-07 -2.3416844e-05 -0.062696055 0.035458956 -0.07862873
-0.0047358368 -0.06745844 -0.0054256115 -0.040768772 0.006350769 0.09100182 -0.14915255 2.2628255e-06
-1.2185668e-05 -0.0019073302 -0.17589425 -0.0055567445 0.14528058 0.08763438 0.08500518 0.011858325
-0.000493616 0.11377272 -3.912264e-07 -0.0813355 -0.093714856 0.06893281 -0.112613805 -2.2068132e-06
-0.020455316 -2.2470169e-05 -0.00067394576 6.19564e-06 -1.5861258e-06 -0.01900665 -0.08052851 -0.001061983
-0.007991271 -0.11407176 0.031466316 -1.8528077e-05 -0.027267441 -0.02970726 -0.12289455 3.0289234e-06
-9.62077e-07 0.19343795 -0.09559863 -0.0008183709 0.18824026 -0.030941924 0.16093676 -3.1919228e-06
-0.059356086 -0.063993484 0.0052658 -0.12738563 0.19438796 0.06955113 -0.103003316 -0.02994521
-0.0033135957 0.00075311493 -0.0028094696 8.582301e-07 -3.140979e-06 0.0724898 -0.06403906 0.09191156
0.011168036 0.05602265 -0.00082402595 -0.020244246 0.00058950455 -0.15430798 0.04514628 4.2695552e-05
-4.223451e-06 -0.010895855 -0.14182694 -1.9547348e-05 -0.0013815368 -0.012913572 0.0031467392 0.040454954
-0.031144742 0.15025291 -4.2183046e-06 0.07999225 0.030502418 -0.013392707 -0.13151377 -0.0019374127
-0.04165164 -0.0025902481 -1.5898476e-06 0.02499522 0.0024180212 -0.039986797 -0.24670146 0.13100366
0.010821629 -0.058938783 0.004492582 -0.024133852 -0.0013235498 -0.021389836 -0.10201282 -4.623461e-06
7.452238e-07 0.1593114 0.22620903 0.0036492597 -0.3095823 -0.055544317 0.13775428 -0.03870873
0.08027673 0.07778026 -0.009468201 0.3005208 -0.32823873 -0.0801507 -0.074523546 -2.4437543e-06
-1.1942877e-05 1.3077059e-05 -0.0010468011 0.02865538 -0.0022333039 0.19287649 0.12955719 -0.18528123
00000000: 12db 83b5 8608 413c 1af4 c13a 6b22 46b7
00000010: b4db 95ba 67b8 93be d4e5 91be ade8 9935
00000020: 6609 25ba 4887 5cbd 4808 bbbd 120e 993c
00000030: 42e7 21be 2abb 68bc ee2f 27bc 868c 2335
00000040: 9d84 39bd e7cc e4bd e047 5ebc bc91 383d
00000050: 4c2d 2ebb 0c59 04bd 9642 d6bd dd67 f8bc
00000060: b27e 0135 b5f0 0ebd ceb6 5c3b 1c9c 2ebd
00000070: 8027 cb36 e8a9 bc3c 83ce 48be 3953 67be
00000080: 6850 023d a1c3 85bd 9099 01ba 4740 4b3b
00000090: 707b c236 df92 d4bd 9f0c 2c3e 2c15 4f3a
000000a0: de22 dbbb 94c8 82bd 2404 243c 51b8 bfb7
000000b0: 6e0a 06bd 3746 173d f618 0c3e d782 303d
000000c0: dd6a 1d3d f031 a33d 02a6 663b 468b cb3d
000000d0: 57ab b1bd 3e30 f63d 996f 123e f132 073c
000000e0: 30fb 2538 dd0d 3dba 5e0d 21bb d960 c9bc
000000f0: d1fc ba35 e118 093e e458 833d 6749 a9bd
00000100: c419 3936 9a7b bcbd eaa1 11bd 76d1 be35
00000110: d3d3 85bb 4767 bd3d a5bf 683e 1b78 0eb5
00000120: 9056 8e3c 41d2 ffbd d7c8 4d3d f31e 2bbd
00000130: c3f6 163e 1921 edbd c0bb 823e edd2 d8bc
00000140: 5ae3 c1bd 9c3a b4bd 94e4 2137 a78d b1bd
00000150: 9f0d 1f3e aa6d fabc 893a 473e 9fbd 7cb6
00000160: 8eee 5735 cb58 53b7 3493 66bc 70f5 2bb8
00000170: c83a ff3c d1cc 5c3e d282 2abd 39cb 233e
00000180: 14f1 d2b5 fcd3 053e bd81 35ba 500e c0b4
00000190: d170 61b7 cf95 1cbc 945c 54be 66e8 31bd
000001a0: 19a7 92b4 fab1 09be 7cce 17be c39d e6b7
000001b0: b51d 15bd bd5c 973d 63c6 cfbd 041e 85b4
000001c0: 77cb a33d 5dcf 963c db8a 263c e055 79bd
000001d0: 8556 8abe 2fb0 25bd 619e e4bc 1d0d c436
000001e0: dc2a 2abb b679 1f3d 5e4d 0cbd 6262 c834
000001f0: 4a6f c4b7 ca66 80bd 693d 113d 1908 a1bd
00000200: 142f 9bbb a727 8abd 54c9 b1bb 28fd 26bd
00000210: 1d1a d03b 2a5f ba3d 72bb 18be 0cdb 1736
00000220: 0c71 4cb7 62ff f9ba 9f1d 34be 5a15 b6bb
00000230: 6fc4 143e a779 b33d 3217 ae3d 6c49 423c
00000240: 0266 01ba ac01 e93d bf09 d2b4 3a93 a6bd
00000250: 93ed bfbd a52c 8d3d 11a2 e6bd c318 14b6
00000260: e891 a7bc 527e bcb7 bcab 30ba 24e4 cf36
00000270: dee2 d4b5 d6b3 9bbc 22ec a4bd 3d32 8bba
00000280: d2ed 02bc 749e e9bd d3e2 003d be6c 9bb7
00000290: f85f dfbc a45c f3bc 23b0 fbbd 8244 4b36
000002a0: b720 81b5 9914 463e 37c9 c3bd f187 56ba
000002b0: 0ec2 403e eb79 fdbc 9bcc 243e d134 56b6
000002c0: 5e1f 73bd 040f 83bd bb8c ac3b 6171 02be
000002d0: a30d 473e d370 8e3d 67f3 d2bd a84f f5bc
000002e0: e928 59bb b06c 453a 141f 38bb 2061 6635
000002f0: 9cc9 52b6 8875 943d e926 83bd 213c bc3d
00000300: 23fa 363c 0278 653d 7203 58ba 43d7 a5bc
00000310: fb88 1a3a e902 1ebe 4eeb 383d 0014 3338
00000320: 2bb7 8db6 8784 32bc 153b 11be 9cf9 a3b7
00000330: af14 b5ba 7293 53bc 8639 4e3b 18b4 253d
00000340: 4223 ffbc e6db 193e f68a 8db6 fad2 a33d
00000350: 35e0 f93c 166d 5bbc 8cab 06be c8f0 fdba
00000360: e99a 2abd 27c1 29bb bf62 d5b5 c7c2 cc3c
00000370: aa77 1e3b 32c9 23bd 4f9f 7cbe d325 063e
00000380: 344d 313c cb69 71bd 8236 933b 5bb4 c5bc
00000390: f67a adba bd39 afbc 19ec d0bd 3a23 9bb6
000003a0: 640b 4835 8722 233e 57a3 673e 6b28 6f3b
000003b0: 9281 9ebe 7082 63bd 750f 0d3e 0c8d 1ebd
000003c0: 2068 a43d 424b 9f3d 8320 1bbc dddd 993e
000003d0: e80e a8be 0d26 a4bd cd9f 98bd 61ff 23b6
000003e0: 445e 48b7 8a65 5b37 d134 89ba b0be ea3c
000003f0: 9f5c 12bb 6a81 453e a4aa 043e 5dba 3dbe

lin2.bias f4 [10]
-0.2437628 -0.12795942 -0.024644068 -0.13783985 -0.23608784 0.0823637 -0.07826361 0.010733139
-0.03027508 0.052962616
00000000: f59c 79be cb07 03be 5be2 c9bc e425 0dbe
00000010: 03c1 71be 4dae a83d ac48 a0bd 0cda 2f3c
00000020: 7203 f8bc 54ef 583d
